INFO:root:Section: minimizedDQN
INFO:root:		 memorylimit : 300000
INFO:root:		 iterations : 1000000
INFO:root:		 evaluationepisodes : 10
INFO:root:		 learningrate : 1e-10
INFO:root:		 epsilone : 0.1
INFO:root:		 epsilonemin : 0.1
INFO:root:		 decreasesteps : 1
INFO:root:_________________________________________________________________
INFO:root:Layer (type)                 Output Shape              Param #   
INFO:root:=================================================================
INFO:root:conv2d_1 (Conv2D)            (None, 32, 49, 49)        2080      
INFO:root:_________________________________________________________________
INFO:root:conv2d_2 (Conv2D)            (None, 32, 49, 8)         400       
INFO:root:_________________________________________________________________
INFO:root:conv2d_3 (Conv2D)            (None, 15, 23, 64)        8256      
INFO:root:_________________________________________________________________
INFO:root:conv2d_4 (Conv2D)            (None, 15, 23, 16)        1040      
INFO:root:_________________________________________________________________
INFO:root:conv2d_5 (Conv2D)            (None, 13, 21, 64)        9280      
INFO:root:_________________________________________________________________
INFO:root:flatten_1 (Flatten)          (None, 17472)             0         
INFO:root:_________________________________________________________________
INFO:root:dense_1 (Dense)              (None, 8)                 139784    
INFO:root:_________________________________________________________________
INFO:root:dense_2 (Dense)              (None, 6)                 54        
INFO:root:=================================================================
INFO:root:Total params: 160,894
INFO:root:Trainable params: 160,894
INFO:root:Non-trainable params: 0
INFO:root:_________________________________________________________________
INFO:root:History:
INFO:root:Episod average rewards: [… INFO:root:Number of episode steps: [40, 39, 6, 17, 40, 25, 40, 39, 32, 40, 40, 18, 40, 16, 29, 26, 40, 9, 40, 10, 40, 21, 14, 37, 19, 40, 40, 28, 27, 40, 23, 40, 27, 40, 40, 14, 17, 18]
…
