INFO:root:_________________________________________________________________
INFO:root:Layer (type)                 Output Shape              Param #   
INFO:root:=================================================================
INFO:root:conv2d_4 (Conv2D)            (None, 32, 49, 49)        2080      
INFO:root:_________________________________________________________________
INFO:root:conv2d_5 (Conv2D)            (None, 32, 49, 8)         400       
INFO:root:_________________________________________________________________
INFO:root:conv2d_6 (Conv2D)            (None, 15, 23, 64)        8256      
INFO:root:_________________________________________________________________
INFO:root:conv2d_7 (Conv2D)            (None, 15, 23, 16)        1040      
INFO:root:_________________________________________________________________
INFO:root:conv2d_8 (Conv2D)            (None, 13, 21, 64)        9280      
INFO:root:_________________________________________________________________
INFO:root:flatten_2 (Flatten)          (None, 17472)             0         
INFO:root:_________________________________________________________________
INFO:root:dense_3 (Dense)              (None, 8)                 139784    
INFO:root:_________________________________________________________________
INFO:root:dense_4 (Dense)              (None, 6)                 54        
INFO:root:=================================================================
INFO:root:Total params: 160,894
INFO:root:Trainable params: 160,894
INFO:root:Non-trainable params: 0
INFO:root:_________________________________________________________________
INFO:root:acc:0.140625, loss:7.006495475769043, batch0
INFO:root:acc:0.28125, loss:3.4523699283599854, batch1
INFO:root:acc:0.125, loss:1.7917656898498535, batch2
…
